codes_SelfDACE/stage2/snapshots_light/pre_train_1.pth (torch, 287379 bytes, 42 tensors)

e_conv1.weight f4 [32, 3, 3, 3]
00000000: 740e 463c 1663 e03c 3f6c 77ba 432f 023c
00000010: e3ea 9d3c c439 2c3b 0029 f3bb b61a 8c3a
00000020: 1d29 cb3c 9a36 9a3b 6ced 2f3b 6662 69bb
00000030: 8afa 2dbd 790f f43b a873 693c 6140 08bd
00000040: bda0 95bc 72e1 05bc eacf 303b 42eb 13bd
00000050: f3c8 003c 386a efba 806c d4bc 2a5c 4f38
00000060: 35b5 ef3a 4dde 08bc fc4a b53c 6444 49bd
00000070: 8851 5ebd 511e 9dbd a683 6a3c 76f6 d4bb
00000080: 075a 1fbd aa14 b13c 63be 1b3b e6bf 35bd
00000090: c519 50bc 9296 18bd e2bb afbd ec7f ef3b
000000a0: 74bf 73bc a86f a7bc 0ed0 863c f40c 6bbc
000000b0: 7783 43bd cd4e 3f3c f6e7 e7bc 50e7 cebc
000000c0: 5297 8f3c 3303 e53b 26c5 69bd 8cfc b43a
000000d0: 419a 7d3b 2e6f b9bc 8ddb aa3c c149 893c
000000e0: 3050 a03c e854 9d3c 4f8a 813c 22ad 973c
000000f0: b317 b73c 332d 9c3c 6a1d b53c 6792 9fbc
00000100: 239d a7bc 0bbf aebc 8171 9abc 444b 99bc
00000110: ea0d a1bc 3118 a4bc 0056 a3bc e57e a3bc
00000120: 8ad0 fcbb 290c acbb 6a3c 21bc 4cd5 83bb
00000130: d661 eeb9 2438 aebb 9cdf 03bc 7d2f a2bb
00000140: 8cb3 0ebc b3b8 4bbd 09df 00bd 8cb4 16bd
00000150: 354d b2bc 93fd c53b 066c b83b f8c7 a0bd
00000160: 2d11 efbc 2e8b bdbc 740d 6dbd 7db5 013d
00000170: 7533 57bc f92c 8ebc 7f3d 223d 5173 d73c
00000180: 9d60 d0bc 1ad8 a33b c560 26bc 796d d3bc
00000190: debc 6ebc bd5f f6bb 23d6 6a3b 7356 463c
000001a0: c84d 283b 7961 5fbd 39b1 3dbc 8a8f 50bc
000001b0: 24f0 7a3c d9a0 bb3c e25a 123d c368 aa3b
000001c0: 38c2 6e3b 6606 053d 6708 9a3c c0b9 9d3c
000001d0: 414a 193d 2922 76bc d622 71bc 7013 f1bb
000001e0: 1443 9abb 9c97 6eba 0396 c9bc 64db aebc
000001f0: 085b 833b 7fdb 9aba 03e9 f5bc ea12 d03a
00000200: 3998 4cbd b12f c5bc a332 b6bc f598 30bd
00000210: e212 8dbc cb1e 18bd 3b26 e4bc c8b6 583d
00000220: f388 903d 88a7 463d 4d53 0e3d 2995 7abc
00000230: 4f0c 4c3d 49e7 383d e8d8 f93c 3960 fe3c
00000240: a875 8a3c 4666 0d3b 1b71 173d 4afd 7a3c
00000250: 8919 0d3c c773 c13b 2bdb 2a3d 36d6 6f3c
00000260: 03ae 133c 4cf5 efbc b86d 5ebd f211 74bd
00000270: ecc5 3cbd bae2 0ebd 6ad9 3fbd fb49 7abd
00000280: ddf9 ebbc 7fd3 34bc f3a6 883d 5047 193d
00000290: 3a0d 383d 3a6b 1b3d fc05 183c fc52 9f3c
000002a0: 3a15 7b3d a0ad 543d f0a1 853c d842 bf3d
000002b0: 2197 103c d58c 193d f7fd 0e3d e952 8e3c
000002c0: 144a 523d 70cb 913d 3c22 1e3c 88db 363d
000002d0: d917 87ba 915b 97bb 2fc6 9a3c bba5 dd39
000002e0: 18a6 f43b eed8 0a3c f265 83bc 8b6a 17bc
000002f0: 334b 833c 5def 5f3c 27de 993c e249 87bc
00000300: bd5e dbbc 150b a23c 0a5b c23c 72a1 cbbb
00000310: 61fd 00b8 43af 273b ab40 49bc e973 c8bb
00000320: 400c 0ebc 6491 52bc 7a99 613b 8217 13bd
00000330: ee69 813b 0555 39bc b22e debc 56bc 7abc
00000340: 7335 e0bc e6ae 263c 4883 23bb 60f7 ffbb
00000350: 243a 83bc fa82 76bc fa3e c1bc 1f23 503c
00000360: 0f33 87a7 3c0c 58a7 f41f 1aa7 a98c cfa7
00000370: 97ec a2a7 36ab 52a7 d5d8 29a8 3158 f6a7
00000380: 41a4 98a7 ef9e 02a8 0928 dca7 06bf 8ba7
00000390: be65 3ea8 0bb5 1ea8 c00b baa7 fd45 70a8
000003a0: 8e46 3ba8 7d00 d6a7 97e7 7da8 9adc 4ba8
000003b0: 41dc 12a8 fbfd a5a8 d20d 7aa8 6e41 20a8
000003c0: db0c d0a8 65b9 8ea8 0bd5 2aa8 3ea3 1693
000003d0: 3422 af93 67bc af93 3373 2493 3f09 a293
000003e0: 292f a393 87ee aa92 69f4 2093 1e12 1993
000003f0: fc14 f292 8f99 8793 35bb aa93 7c41 d292
0.012088407 0.027390998 -0.0009438432 0.007945838 0.019277042 0.0026279548 -0.007420659 0.0010689113
0.024799878 0.004706216 0.0026844395 -0.0035611629 -0.04247526 0.0074481335 0.014248766 -0.03326452
-0.018265123 -0.008171426 0.0026979395 -0.03611303 0.00786041 -0.0018265909 -0.025930643 4.943848e-05
0.0018288257 -0.008353782 0.022130482 -0.049137488 -0.054276973 -0.07671798 0.014313614 -0.006499107
-0.038904216 0.021616299 0.0023764602 -0.04437246 -0.012701456 -0.03725297 -0.08580758 0.0073089506
-0.014877189 -0.020438984 0.01645663 -0.01434635 -0.047732797 0.011676502 -0.02830885 -0.025256783
0.01752821 0.006988907 -0.05707278 0.0013808175 0.0038696679 -0.022636022 0.020856643 0.016758801
0.019569486 0.019205526 0.015813021 0.018515173 0.022350168 0.019064521 0.022108752 -0.01947899
-0.02046067 -0.02133133 -0.018852951 -0.018712647 -0.019659955 -0.020031067 -0.019938469 -0.019957969
-0.0077152895 -0.005250473 -0.009841064 -0.0040232297 -0.0004546779 -0.005316751 -0.008048918 -0.0049495087
-0.0087097995 -0.04973669 -0.031462703 -0.036793277 -0.02176533 0.0060421913 0.005628112 -0.07850641
-0.029182995 -0.023137655 -0.057874158 0.03166722 -0.013134827 -0.017355429 0.03960943 0.026300104
-0.025436694 0.0050001265 -0.010154908 -0.025809037 -0.014571397 -0.007518737 0.0035833202 0.012105572
0.0025681127 -0.054536317 -0.011577898 -0.012729535 0.015316043 0.022903847 0.035731204 0.005200477
0.0036431681 0.032476805 0.018802835 0.019253612 0.03742433 -0.015022793 -0.014717778 -0.0073570535
-0.0047077034 -0.0009101571 -0.024607664 -0.021344848 0.0040086545 -0.0011814683 -0.030018335 0.0015874777
-0.04994986 -0.024070593 -0.022240942 -0.04311462 -0.017220918 -0.03713874 -0.027850261 0.05290869
0.07057371 0.048499614 0.03474741 -0.015294352 0.049816426 0.045142446 0.030498937 0.031051742
0.016901806 0.0021575852 0.0369731 0.015319178 0.008612045 0.0059036943 0.04171292 0.014638474
0.009013656 -0.029291771 -0.054303855 -0.059587426 -0.04608719 -0.034884192 -0.0468382 -0.06110571
-0.028805668 -0.011036753 0.06672468 0.037421525 0.04493449 0.037944056 0.009278771 0.01944875
0.06129954 0.051923394 0.01631257 0.09338921 0.008825094 0.037487824 0.03491017 0.017373519
0.051340178 0.07118881 0.009651717 0.044642955 -0.001030679 -0.00461907 0.01889333 0.00042275884
0.007466089 0.008474572 -0.016039822 -0.00924171 0.016027069 0.0136679085 0.018782688 -0.016514722
-0.026778573 0.019780675 0.023725051 -0.006214314 -3.0753556e-05 0.0025586642 -0.012283484 -0.006117333
-0.008669913 -0.012852047 0.0034423755 -0.03591109 0.0039493954 -0.011311774 -0.027121875 -0.015303692
-0.027369237 0.010173535 -0.0024950076 -0.007811472 -0.016018935 -0.015045876 -0.0235896 0.012703686
-3.7525385e-15 -2.9982654e-15 -2.1389115e-15 -5.7606546e-15 -4.5220544e-15 -2.9236168e-15 -9.4284025e-15 -6.8374333e-15
-4.236656e-15 -7.250913e-15 -6.1105673e-15 -3.878736e-15 -1.05691806e-14 -8.810019e-15 -5.163811e-15 -1.3337853e-14
-1.0395884e-14 -5.939746e-15 -1.4094539e-14 -1.1316599e-14 -8.152388e-15 -1.8428826e-14 -1.3880785e-14 -8.895972e-15
-2.3098214e-14 -1.5845569e-14 -9.483092e-15 -1.9013146e-27 -4.4209938e-27 -4.436199e-27 -2.0756508e-27 -4.0903667e-27
-4.119349e-27 -1.078731e-27 -2.0315343e-27 -1.9320247e-27 -1.527752e-27 -3.423021e-27 -4.3098634e-27 -1.3269006e-27

e_conv1.bias f4 [32]
00000000: 30d2 153e 3fef e33d 76ca 813b b9c5 873d
00000010: 3edf 0a3e 5eca 81ba b768 4abd 9ce5 693e
00000020: cea5 20b3 d323 52ae bd88 243e bf07 983d
00000030: 8eed bebb eeec 3f3e eeaf 9539 5c28 8f3c
00000040: ac4e 553e d552 e3b6 c4bc 2e3c 7de2 0480
00000050: a118 b4bb 193f 27b6 0060 193e 7f69 dc96
00000060: aff2 733a b5d6 093d 86ee 083e 0b35 2c3e
00000070: 8de8 563d d811 5a3e 995e 063e 3642 153e
0.14630961 0.11129617 0.003960903 0.066295095 0.13561723 -0.0009902229 -0.04941627 0.22841495
-3.74037e-08 -4.778029e-11 0.16067787 0.074233525 -0.0058266586 0.18742725 0.00028550572 0.0174753
0.20830792 -6.77477e-06 0.010665122 -4.4859e-40 -0.0054961 -2.4921667e-06 0.14978027 -3.5609494e-25
0.0009305877 0.033652026 0.1337224 0.1681711 0.05246787 0.2129587 0.13122024 0.14576039

e_conv1_a.weight f4 [3, 32, 3, 3]
00000000: b632 803c cb2a 833c c01f 963c db1f 4cbc
00000010: ff1d 5a3d 25f3 013d e5fc a53c 5df6 523d
00000020: 52e9 c23a 69a9 03bb f457 c93a c0fb 143c
00000030: 1480 d4bb 1849 943c e075 a83c acf3 72bc
00000040: c545 fe3b 7dd8 0bbc caea a1bb af9d 94bb
00000050: e363 03bb cf45 d8bb bc1d ebbb a8d1 9dbb
00000060: a9cc c9bb 6741 f2bb 7874 b2bb cc87 0c3c
00000070: 5869 5e3c 53a4 263c 506e 3c3c 628f ad3c
00000080: 5593 993c ea5c eb38 4131 6e3c 48e4 9839
00000090: 481b 933b 883b 053d 3ac2 afbc 0013 2a3d
000000a0: cdbd 563d d0c6 253c 6593 47bc 2e8d ae3c
000000b0: 2b74 093b 260f 09bd 3cdc f9bc c794 dcbc
000000c0: fc16 48bd 0463 51bd a0d3 2dbd 9970 72bd
000000d0: b7aa 61bd f992 56bd 75f8 903b 302c ea3a
000000e0: cd3a 003c 4fa7 b53c 9886 693c d78b af3b
000000f0: 59d1 af3c 565d ae3c 3a06 5f3c 7876 0dbc
00000100: b942 a83c 0fc8 1c3d f470 23ba ff65 c43c
00000110: 14f7 bb3c 24b2 82bc 62c4 d13c d0e4 a4bc
00000120: e6a1 0080 052a 0080 8e90 0080 0f8a 0000
00000130: dc27 0000 9064 0000 8eb3 0000 6306 0000
00000140: a47e 0000 68ad 0000 06c8 0000 d4a0 0000
00000150: 7ca1 0080 880e 0000 1055 0080 908a 0080
00000160: fe94 0000 f5c3 0000 bec6 89bb 2599 de3c
00000170: 3745 9b39 1ef9 3e3c d4c5 923c 7655 61bb
00000180: e1bb 2b3c c150 4bbc 27ea b2bb 121b 893c
00000190: 9a2e 1e3c 51b3 80bc 3832 a33c 6ffc 093d
000001a0: e1e7 333c e482 893a e197 1e3c 297b 663a
000001b0: 69b5 0b3c 2547 913a 0aaf aa39 307d b83b
000001c0: 67ac bbbb 025b 573b bcd4 82ba ef0a d0bb
000001d0: 9440 883b 4f6f ddbb b1a0 92bb 677b da3b
000001e0: 6965 113d e6f3 7f3d 9309 daba 3466 a4bc
000001f0: e0b9 8f3c fc4c 4cbc 6e41 d5bc 969b a8bc
00000200: 2594 eebc 8472 bbbc 5a1a 8abc 6232 d7bc
00000210: aab1 03bd 70d2 d4bc eea9 0fbd 730c 4cbb
00000220: d815 06bc 44aa c03c a616 c23c 9f79 4a3b
00000230: a682 583c d0d6 ff3b 8284 f73b 6f1b 293b
00000240: cc4d de3b 6033 ab3c b61d 94bb 6624 ac3c
00000250: b683 793d dca9 b3ba 1b3f 9cbc 2885 9a3c
00000260: 3437 c9bb aa85 7caa 7eae 7baa 6708 88aa
00000270: 7414 67aa 8acf 6aaa 3259 6baa 1836 70aa
00000280: df94 69aa 5333 77aa 3c26 d73b 4255 193c
00000290: beb2 ff3b aeb0 043c 6fb4 2f3c f1bb 213c
000002a0: beea cd3b 02f7 0f3c 0320 043c bb53 0000
000002b0: ff3c 0000 3e5e 0000 2f4f 0000 af17 0000
000002c0: 522c 0000 7b5f 0000 4b2d 0000 3c61 0000
000002d0: 8c98 ad3c f6cd 3d3c 2996 b43c 5084 3e3c
000002e0: ecfc d9bb 5ff0 3d3c e84a ea3c a080 b53c
000002f0: a591 193d b47a 0080 e017 0000 fc1f 0000
00000300: c530 0000 4643 0080 8d1c 0080 9191 0080
00000310: d2bd 0000 fac4 0000 703a 5cbc feae 07bc
00000320: 42c6 53bc 044f cc3b 55d5 823c 1031 003a
00000330: 3b85 e93c 44bd c73c 17a4 b73c 3739 0000
00000340: 6e0a 0000 2074 0080 37be 0000 ddc0 0080
00000350: 08d1 0000 17c5 0080 a35e 0000 78c0 0080
00000360: 888f 39bc 84bd 54bc 552f e9bb 0a5d 68bc
00000370: defd 8bbc 89c1 47bc 79f4 3dbc 267a 78bc
00000380: bbc0 3dbc 8ac4 1bbd 3159 b93b d29e 153b
00000390: 6413 25bc a96c 263c 6cdc 9e3c 530f 20bd
000003a0: 3c50 cabc 4bbb 90bc 3f93 00bd 642a ad3c
000003b0: de5a b03a acd4 ed3b e1a2 303d fb01 71bb
000003c0: f18d 313b a026 043c d9cd c33b da7a 1fbd
000003d0: 5daf dcbc f4e6 29bb b716 843b 3cd9 903d
000003e0: 3ea4 163d c29b 5dbb 1225 083c bddf cebc
000003f0: 81b6 e5bb deae 73bb 06f8 f4bc c440 e8bb
0.01564918 0.016011616 0.018325686 -0.012458767 0.053251263 0.03172602 0.020262191 0.05150448
0.001487056 -0.002008999 0.0015361295 0.009093225 -0.0064849947 0.01810126 0.02056402 -0.014828604
0.007759782 -0.008535502 -0.004941319 -0.004535399 -0.002004855 -0.0066001187 -0.0071751755 -0.0048162527
-0.0061584306 -0.0073930505 -0.005446013 0.008577298 0.013574921 0.010171014 0.01150091 0.021186534
0.018747011 0.0001122298 0.01453811 0.00029161782 0.004489336 0.032527477 -0.02145492 0.041522026
0.052427102 0.010118201 -0.012181138 0.021307554 0.0020973783 -0.033461712 -0.030500524 -0.026926411
-0.048850045 -0.05111982 -0.04243815 -0.059189413 -0.055094447 -0.052386258 0.0044241496 0.0017865952
0.007826519 0.022174506 0.014253281 0.0053572464 0.02146213 0.02128474 0.013612324 -0.008634202
0.020539628 0.03827673 -0.0006234788 0.023974417 0.022944964 -0.015954085 0.025606338 -0.020128638
-5.8078e-41 -1.5074e-41 -5.1856e-41 4.9526e-41 1.4299e-41 3.6075e-41 6.4412e-41 2.291e-42
4.543e-41 6.2206e-41 7.1755e-41 5.7694e-41 -5.793e-41 5.213e-42 -3.0515e-41 -4.9707e-41
5.3448e-41 7.0296e-41 -0.0042046 0.027172634 0.00029615473 0.011656074 0.017916597 -0.0034383214
0.010481806 -0.01240939 -0.005460042 0.016736541 0.009654665 -0.015710505 0.019921407 0.033688005
0.010980577 0.0010491279 0.009679765 0.0008792156 0.008527138 0.0011083825 0.0003255534 0.005630158
-0.005727339 0.0032860641 -0.0009981613 -0.0063489596 0.004158089 -0.006757654 -0.0044747223 0.0066675427
0.035497103 0.06248846 -0.0016634933 -0.020068265 0.017544687 -0.012469526 -0.026032176 -0.020582002
-0.029123375 -0.022881754 -0.016858269 -0.026269142 -0.032151856 -0.02597925 -0.035074167 -0.003113535
-0.008183919 0.023518689 0.02369244 0.0030895246 0.013214743 0.00780759 0.007553638 0.0025803705
0.0067841765 0.020898521 -0.0045201434 0.02101345 0.060916625 -0.0013707238 -0.01907306 0.018862322
-0.006140614 -2.242847e-13 -2.2353817e-13 -2.4164283e-13 -2.0524018e-13 -2.085538e-13 -2.0903139e-13 -2.133505e-13
-2.0746207e-13 -2.1955814e-13 0.006565837 0.009358706 0.00780329 0.008098764 0.010724171 0.009871469
0.006284087 0.008786919 0.008064273 3.0037e-41 2.1881e-41 3.3808e-41 2.8406e-41 8.496e-42
1.5899e-41 3.4252e-41 1.6248e-41 3.4881e-41 0.021190904 0.011584749 0.022044258 0.011628225
-0.006652465 0.0115929535 0.028600171 0.02215606 0.037492413 -4.4018e-41 8.565e-42 1.1474e-41
1.7495e-41 -2.4133e-41 -1.0242e-41 -5.222e-41 6.8095e-41 7.0662e-41 -0.013441667 -0.0082814675
-0.012925686 0.0062350053 0.015970865 0.00048901234 0.028505912 0.024382241 0.022417111 2.0525e-41
3.741e-42 -4.1658e-41 6.8236e-41 -6.9186e-41 7.4986e-41 -7.0703e-41 3.3949e-41 -6.9045e-41
-0.011325724 -0.012984637 -0.007116238 -0.0141823385 -0.017088827 -0.0121921385 -0.011593931 -0.015165841
-0.011581595 -0.03802923 0.0056563844 0.002283026 -0.010075424 0.010157743 0.019392215 -0.039077114
-0.024696462 -0.017667433 -0.031390425 0.021138377 0.0013454815 0.0072580185 0.043124083 -0.0036774862
0.002709266 0.00806585 0.0059754667 -0.03893552 -0.026939088 -0.0025925012 0.004031028 0.07072684
0.036777727 -0.0033814763 0.0083096195 -0.025253171 -0.0070102816 -0.0037183086 -0.029903423 -0.007087799

e_conv1_a.bias f4 [3]
00000000: 73bd 9f3d b5db 153c 30c0 b13d
0.077998064 0.0091466205 0.08679235

e_conv1_b.weight f4 [3, 32, 3, 3]
00000000: d3bb d23c 3704 de3c 19b3 ecbb 44f1 aabc
00000010: 6a6d c03c 4b51 063c fe58 9ebc e6e9 78bc
00000020: 6f65 febc f301 2fbd 1fbd 8bbc f07d 10bd
00000030: a0f5 c3bc 9e65 e13c 60f9 eb3a 26d0 d63c
00000040: 207d 48bb ad6c 193a 8117 7b3c f073 a3ba
00000050: a28d f03b aba2 4b3d 5338 d2bb 7674 a6ba
00000060: 461b 2b3c a9a4 e7bb 4073 cdbb 19e3 5bbc
00000070: 2a0c 193a 4335 8a3c e244 d0bc 9caa 183c
00000080: 130a 2a3c 192f 343c 1317 e33b b4a9 02bc
00000090: 7b3b 48bc 2b2b 213d 6406 0eba 94c1 813b
000000a0: 0bab 4b3c 5edb d93c a0fe 55bc 54fd b9bc
000000b0: fe6c d5bc e7fa a03b 67db 89bc bd3d 693c
000000c0: 22bf f13c f58e 0dbb 70df 11bd 677f 7cbc
000000d0: 49bc 3b3c d003 b23b 326a aaba 5e98 29bc
000000e0: 386f dbba ae75 443c 4517 15bb f964 c9bc
000000f0: 5273 39bb e204 c9bb dd76 673c 87ef 43bc
00000100: 1208 17bc 3001 023c ee90 9a3c 8e17 a0bb
00000110: edfe be3c fb36 96bb 27ff cabc e374 223c
00000120: d2c6 89bc 38b2 5cbc 12bb 1c3c cfe7 b53c
00000130: 6a1a c13c 8a27 f53b 449f 9a3c 6bab d53a
00000140: 6002 ec3b 97f7 7fbb 0f88 143d bea7 df3c
00000150: 2946 28ba 45bd 113c 0b80 e8bb 2c75 19bb
00000160: 0073 723d 1246 6b3c 4cdb cdba 6dbb 37bc
00000170: 8494 2bbc a55f 5bbc 0b68 d53a 1bd4 93bc
00000180: acd3 71bc 0603 dbbc bb30 2bbc d26f 263c
00000190: 3a66 8e3c 6f2c bc3b f768 313d b498 eb3c
000001a0: 39a5 f7bc 0c09 23bd 2482 33bc 320c 933b
000001b0: 59e5 0abc ed96 cc3c 6dfc 8d3c 1593 f8bb
000001c0: 49e6 ac3c 3485 173d 15e2 3b3c 0441 383d
000001d0: a427 d9bc 9c9d 633c 07e3 c4bc 1769 d9b9
000001e0: 7e3b 073b ea1f 47bd 360f a0bc d77d 7dbb
000001f0: a4f7 803c 64c5 b83b 8dbb 173b 14d0 ce3c
00000200: 5b36 60bc 44be 1a3d 6615 f4bc 8eea 9a3c
00000210: 77ce cebb d87a c43b 8ada 2fbc 45c9 95bc
00000220: db22 aabb 347a a63b 4563 bebc e04a 4d3b
00000230: 5eed e03c 44db 653c 20c9 f93c 1861 6cbc
00000240: bed1 ffbb 97a8 5fbc 597d 81bc 4ab1 d8bc
00000250: 541d 8c3c 8157 2c3c e2d9 163c 1504 7c3c
00000260: 863a a53c 7a59 17bc 7a79 84bc 3248 96bc
00000270: d5f2 f1bc a6c4 2abc 6081 c53c a67a d43b
00000280: 279f 70bc b859 b6bb fb5e f13a 2e81 c7bb
00000290: c115 033d 7010 11bc 9905 fc39 1eb8 3c3b
000002a0: 6586 b5bc 4b84 233d 5055 6b3a dc45 2bbc
000002b0: 13bb 18bb 1413 34bc de4d 2c3c 51c9 9ebb
000002c0: e0fb 82bc a71a c53b d0b1 923c 7e25 a53c
000002d0: 1028 adbc 7c6f af3c 4bd9 223b 441b b03b
000002e0: c090 c03a d668 0b3c dc4e 683a 44c5 973c
000002f0: 6a2c e0bb 1bba eb3c ea42 653c 0573 db3b
00000300: 73bb 963c 22a3 883c 7e23 97bc 7b12 fa3a
00000310: 547b 8e3c dbee 47bc 6243 d6bc 8f68 a8bc
00000320: f97f c4bc c2e8 24ba f3ed 43bc 8fdf ce3c
00000330: b4db 37bc 5c1b 2bbd 5d82 a8bc c68b a23c
00000340: a6c9 b2bc 4ff3 653c 67c6 0dbc f72f 2abc
00000350: 0664 4cbc 2f63 543c 3bf8 a7bc 2c76 ffbb
00000360: 74c8 72bc 648d 04bd 80ae 483c ed84 8fbc
00000370: ca9b 8a3b 9ed1 a93b 58b0 29bc b7a7 2ebc
00000380: bd2b 6bbc b228 d1bc 8dd4 10bc 9985 54bc
00000390: 3bea 66bc f901 243d 1331 a5bc e64b 1abd
000003a0: b6ea 193c ce1e 9ebc e730 34bd 75e6 21bc
000003b0: de7d 23bd dc49 f7bb 0cbd 13bc 273f 0a3b
000003c0: 8b84 89bc 89bc dd3b afa8 14bd 2f45 ad3c
000003d0: d2aa fabb 355f 403c 8e9a d9bb ad2d a63c
000003e0: 83c8 f13c 0fde a03c dc21 43bb 4635 25bb
000003f0: 014f 4d3c 820a 013d be2b 40bb ee4e 60bb
0.025724327 0.02710162 -0.0072234985 -0.020866998 0.023489673 0.008198093 -0.019329544 -0.0151924845
-0.031054227 -0.04272647 -0.017057953 -0.035276353 -0.023920834 0.027514275 0.0018003397 0.0262223
-0.0030592158 0.0005852681 0.015325428 -0.0012470465 0.0073411027 0.04971568 -0.006415406 -0.0012699503
0.010443514 -0.0070691896 -0.0062698424 -0.0134208435 0.00058382994 0.0168711 -0.02542347 0.00931802
0.010378378 0.010997557 0.006930241 -0.007975031 -0.0122212125 0.03934781 -0.00054178224 0.003959844
0.012430917 0.02659386 -0.013061196 -0.022703804 -0.026052948 0.0049127224 -0.016828252 0.014235911
0.029510085 -0.0021600102 -0.035613477 -0.015411234 0.011458465 0.0054325834 -0.0013001619 -0.010351269
-0.001674152 0.011990948 -0.0022749465 -0.02458428 -0.0028297496 -0.0061346153 0.01412746 -0.011958963
-0.009218233 0.007934853 0.018867936 -0.0048856204 0.023314917 -0.004584191 -0.02477987 0.009915563
-0.016818438 -0.013470225 0.009566085 0.022205262 0.023572166 0.00748152 0.018874772 0.0016301697
0.0072024316 -0.0039057487 0.036262568 0.027301665 -0.0006419146 0.008895223 -0.007095342 -0.0023415787
0.059191704 0.014359968 -0.0015705614 -0.011214119 -0.010472421 -0.013389503 0.0016281618 -0.018045476
-0.014759939 -0.02673484 -0.01044863 0.010158496 0.01738273 0.0057426016 0.043312993 0.028759338
-0.030230151 -0.03980355 -0.010956321 0.004487538 -0.008477532 0.02497431 0.01733228 -0.007585893
0.021105902 0.036992267 0.011467476 0.04498388 -0.02650816 0.0138925575 -0.024034036 -0.00041467763
0.0020634825 -0.04861442 -0.019538503 -0.0038679743 0.015743084 0.005638765 0.002315256 0.025245704
-0.013684834 0.037779108 -0.02979536 0.018910673 -0.0063112336 0.0059960894 -0.010733256 -0.01828445
-0.0051921434 0.0050804857 -0.023240695 0.0031325147 0.027456935 0.014029328 0.030491412 -0.014427446
-0.0078069856 -0.013651035 -0.01580684 -0.026451726 0.017103828 0.010518909 0.009207221 0.015381833
0.020169508 -0.0092376415 -0.016171206 -0.018344972 -0.029534737 -0.010422861 0.024109542 0.0064843474
-0.014686382 -0.0055648945 0.0018415147 -0.0060883975 0.032003168 -0.008854017 0.00048069356 0.0028796266
-0.02215881 0.039921086 0.0008977251 -0.0104536675 -0.0023304864 -0.010990877 0.010516612 -0.004845776
-0.015989244 0.00601514 0.017907053 0.02015948 -0.021137267 0.021415465 0.0024848755 0.005374344
0.0014691576 0.008508882 0.00088618486 0.01852668 -0.006841232 0.028775265 0.013993004 0.006697061
0.01839993 0.01667935 -0.018449541 0.0019078994 0.017392792 -0.012202944 -0.026155178 -0.02055767
-0.023986803 -0.0006290787 -0.011958587 0.025253085 -0.011221815 -0.04177414 -0.020569975 0.01984204
-0.02182467 0.01403506 -0.00865326 -0.010387412 -0.012475019 0.0129631 -0.020504108 -0.0077960696
-0.0148183 -0.032361403 0.012248635 -0.017519439 0.0042299973 0.005182459 -0.010356985 -0.0106601035
-0.01435369 -0.0255321 -0.008839739 -0.012971305 -0.014093931 0.040040944 -0.020165002 -0.03767004
0.009394338 -0.019301798 -0.04399195 -0.009881605 -0.03991496 -0.0075466465 -0.00901724 0.002109477
-0.016786834 0.00676686 -0.03629368 0.021151153 -0.007649758 0.011741449 -0.006640739 0.020285452
0.029514557 0.019637136 -0.002977482 -0.0025208755 0.012531043 0.03150416 -0.0029322947 -0.0034226733

e_conv1_b.bias f4 [3]
00000000: 5c81 713c 9b2d 673d 66c8 5ebd
0.014740314 0.056439977 -0.054390334

e_conv2.weight f4 [32, 32, 3, 3]
00000000: 7267 043b cd00 c63c 927d 1b3c 6094 d0bb
00000010: c7a5 0b3d 9599 39bc 37d5 fb3c 844c 363d
00000020: 7afd b5bc 8eae c83c c6f1 0c3d 5b50 283d
00000030: 5d1a be3b afd1 093d a614 ce3c f7a1 913c
00000040: c50c b63c 5ab2 c53c 25e1 a2bc 6597 6bbc
00000050: 95e6 9bbc 00b5 80bc f02d 24bc 1b2a 74bc
00000060: ae7a a1bc dbe8 6abc ca15 9bbc c8f7 ca3c
00000070: ca60 583c bcef aa3c 1518 a53c cfb8 983c
00000080: 4ba9 683c 3df0 dd3c e8dd d53c 8aff b53c
00000090: 4f6d 16bc 3672 67bb 6068 e0ba dde4 8c3c
000000a0: 20c8 293c 2341 82bb 7218 87bc 112c d53a
000000b0: 21bb 2e3b d82b 4ebd 5e74 33bd dfdf 44bd
000000c0: 453c 4abd a44c 55bc b3f8 2dbd 17cf 4cbd
000000d0: 6c89 0bbd cf85 63bd 5aa1 183c 7adf ab3b
000000e0: f5aa c8bc d918 97bb b07e 4bbc e729 c53a
000000f0: 45e4 8f3b 4795 353c e771 edba 5706 b0ba
00000100: 03d7 a53c c95f ff3b 75d0 5d3c d6ee 9d3c
00000110: 5afb 233d 4a7c 773c 2b69 0fbb b07a 5e3b
00000120: c848 0000 c853 0000 fb63 0080 0980 0000
00000130: 2f4d 0080 7e39 0000 ab14 0080 a847 0000
00000140: 4995 0000 bd1b 0000 b302 0080 0216 0000
00000150: c925 0000 009f 0080 13c9 0080 2c84 0000
00000160: c447 0080 e14c 0080 eb91 f7bb d62a b63c
00000170: 840e 70bb 771d 123c 8745 b03c 36a6 da3b
00000180: 7ef2 e2bb a245 133d d224 97bb a270 273c
00000190: de32 923c 6c38 2f3c ee4a e03c 0e84 7eba
000001a0: 529b 993c 0768 3fbb fe7f cf3b a7bf 463c
000001b0: 188b a03b 38a8 a53b acfd 993b 51c8 563b
000001c0: 5d68 553b 392c ba3b 98d5 64b9 7efd b9ba
000001d0: 689d 853a 0c0d 353b f722 593d 14cf f6bb
000001e0: 3876 87bb 3930 3f3d 7648 95bb e337 ab3c
000001f0: 3936 16bc a1a8 28bc 3ae4 cfbc 3c2e aabc
00000200: 1398 bebc 8242 cebc 2851 a5bc 0c3d b9bc
00000210: 7733 eebc e122 c6bc 5efc d6bc 8f74 303b
00000220: 8c53 6d3c 9590 0ebd 7b3c 203c 6d95 d8bb
00000230: cd1c 66bc 1824 4cbc 2369 133b 0466 9dbc
00000240: 3e35 aebb e7f5 053d 5194 9b3b 6d9f ddbb
00000250: 3f8f 293d 0832 e33b 1a99 d33b 1c3d 083d
00000260: 34ab 02bc a2d1 9f2c 572d a82c 14e1 a62c
00000270: defa b22c 7a30 b92c 9abb b72c c367 b72c
00000280: 07cc bd2c a21c bb2c 6397 843b 5981 973b
00000290: 168b 933b 663d 833b 5995 983b 2b3c 973b
000002a0: 5e27 9b3b e690 b43b 7fd8 b43b daa3 0080
000002b0: 9f29 0000 3b3f 0080 a2cd 0000 47be 0000
000002c0: cf44 0080 ca6e 0000 e186 0080 2196 0080
000002d0: 4562 ca39 47dd 60bc c3e9 50bc 64ee 843c
000002e0: 0f06 173c 8518 6f3a d6ef 823c d723 03bc
000002f0: 93d6 67bb a1a3 0000 0d5a 0000 8991 0000
00000300: cb91 0000 1546 0000 717d 0000 1575 0000
00000310: 25b4 0000 ff8e 0000 ec6e 87bb 4cd9 ae3c
00000320: 2e7e 0f3d da25 b23c f3a5 e63c 95c2 3dbc
00000330: 6c75 afba 4625 d83b 008a 163d a608 0080
00000340: 80a8 0080 6bc1 0080 d4c4 0080 d35d 0000
00000350: 9d69 0080 4ba7 0000 41b3 0080 638a 0080
00000360: 70d5 b1bc 5ebd 82bc 4621 afbc 02dc 8abc
00000370: 104d 38bc 6eb8 8bbc 55a2 b2bc b3ed 87bc
00000380: 202d b6bc 4fde a1b9 15ca 5e3c d32d 803b
00000390: bbf3 b33b cc69 20bb 6361 d9bc 9f18 2abc
000003a0: 7468 2c3b 953d 7cbc da40 6d3c a308 f53c
000003b0: f708 dc3b 490b 0f3c 8cb6 f53c 3a81 fcba
000003c0: 75c1 ec3b 7814 e33c 0b13 b33b 54ca b13b
000003d0: b927 8e3c 85ee 563c 8ca1 4b3d f576 723c
000003e0: 95b5 a23c d8da d93b 2b95 c53c c1d9 733c
000003f0: 56c4 ed3c 0673 063b 5f4b 523c a252 093c
0.002020326 0.024170304 0.0094903875 -0.006365344 0.034093644 -0.011328121 0.030741317 0.044506565
-0.022215594 0.024497297 0.03441026 0.041092258 0.0058014826 0.033647235 0.02515633 0.017777426
0.022222886 0.024132896 -0.019882748 -0.014379357 -0.019030849 -0.015711308 -0.010020718 -0.014902617
-0.019711819 -0.014337744 -0.018931288 0.024776354 0.01320667 0.020866267 0.020153085 0.018642811
0.014200519 0.027092094 0.02610679 0.022216577 -0.009181335 -0.0035315878 -0.001712095 0.017198974
0.010362655 -0.00397505 -0.016491149 0.0016263743 0.002666183 -0.05033478 -0.04381215 -0.048065063
-0.049373884 -0.013018761 -0.042473506 -0.050002184 -0.034066603 -0.05554753 0.009315813 0.0052451463
-0.024495581 -0.0046111164 -0.012420341 0.0015042395 0.0043912255 0.011082954 -0.0018115611 -0.0013429624
0.020244127 0.007793401 0.01353847 0.019278925 0.04003463 0.015105316 -0.0021882753 0.003394764
2.6109e-41 3.0055e-41 -3.5866e-41 4.593e-41 -2.7688e-41 2.0624e-41 -7.414e-42 2.5705e-41
5.3553e-41 9.95e-42 -9.68e-43 7.895e-42 1.3555e-41 -5.7038e-41 -7.2132e-41 4.7414e-41
-2.5745e-41 -2.7579e-41 -0.0075552366 0.022237223 -0.0036629746 0.008918158 0.021517528 0.006672646
-0.00692588 0.03595508 -0.0046125436 0.010219725 0.017846521 0.010694604 0.02737948 -0.0009709009
0.01875082 -0.0029206292 0.0063323965 0.012130654 0.0048993938 0.0050554536 0.0046994295 0.0032773206
0.0032563426 0.0056815413 -0.00021823344 -0.0014189926 0.0010194005 0.0027626185 0.05301186 -0.00753201
-0.004133966 0.046676848 -0.004555757 0.020900672 -0.009168201 -0.0102941105 -0.025377382 -0.020774
-0.023265874 -0.025178198 -0.0201803 -0.022612117 -0.029077275 -0.024186553 -0.026243385 0.0026924943
0.014485251 -0.034805853 0.009780045 -0.00660961 -0.014044953 -0.012459777 0.0022493086 -0.019213684
-0.0053164056 0.032705214 0.0047479053 -0.00676339 0.041396376 0.0069334544 0.00645746 0.033261403
-0.007975388 4.5423257e-12 4.779881e-12 4.7429925e-12 5.086916e-12 5.2633982e-12 5.222001e-12 5.2126927e-12
5.3943547e-12 5.3180385e-12 0.004046367 0.0046235737 0.0045026643 0.004005122 0.0046564755 0.004615327
0.0047349175 0.0055104373 0.0055189724 -5.8779e-41 1.4931e-41 -2.2683e-41 7.3767e-41 6.8259e-41
-2.4684e-41 3.9744e-41 -4.8385e-41 -5.3856e-41 0.0003860166 -0.013724632 -0.012751046 0.016226955
0.009217753 0.000912078 0.015983503 -0.00800415 -0.00353757 5.8699e-41 3.2304e-41 5.2208e-41
5.23e-41 2.514e-41 4.5e-41 4.2001e-41 6.4624e-41 5.1297e-41 -0.004133096 0.02134385
0.035032444 0.021746565 0.028155303 -0.0115820365 -0.0013386435 0.00659624 0.0367527 -3.102e-42
-6.0446e-41 -6.9385e-41 -7.0609e-41 3.3658e-41 -3.7887e-41 6.0013e-41 -6.4304e-41 -4.9644e-41
-0.02170822 -0.015959438 -0.02137817 -0.016950611 -0.011248842 -0.017055716 -0.021805922 -0.016592836
-0.022238314 -0.00030873946 0.013597985 0.0039117127 0.0054917014 -0.0024477122 -0.026535695 -0.010381847
0.0026307376 -0.015395542 0.014480794 0.029911345 0.006714936 0.008730718 0.029994272 -0.0019264587
0.0072252103 0.027719721 0.0054649166 0.0054257307 0.017352926 0.013118391 0.04971461 0.014798869
0.019861976 0.0066484027 0.02411898 0.01488346 0.029024284 0.0020515337 0.012835353 0.008381518

e_conv2.bias f4 [32]
00000000: ba4c 8e3d b91f 433c 4604 16bb 7a77 07b8
00000010: e813 8dba 7b16 6e3d 7b66 93bc 0d48 923d
00000020: ffa1 8c3c 2141 8b3d 3740 e5bc 29a6 35b8
00000030: 0adc 34bc 7e5e 9fb8 b3ba febc b10f 0480
00000040: 9936 233d e82d eeb9 2bcd a1b8 ae38 8cba
00000050: 41b1 4e3d 2055 2c3d 1c9e 613d d99d 7f3c
00000060: cd51 26bc c7b3 963d 0b9d 4d3d b34d ecb4
00000070: 8889 523d 7453 d2bb f62b 0c3d 875c 7c3c
0.06948228 0.011909419 -0.002289073 -3.229778e-05 -0.0010763379 0.058126908 -0.017993202 0.07142649
0.01716709 0.06799532 -0.027984722 -4.330851e-05 -0.0110387895 -7.599311e-05 -0.031094884 -3.72971e-40
0.03984699 -0.000454291 -7.715294e-05 -0.0010698044 0.05046201 0.04207337 0.055082425 0.015601599
-0.010151339 0.073585086 0.050198596 -4.401496e-07 0.05140069 -0.00641864 0.034221612 0.01540292

e_conv2_a.weight f4 [3, 32, 3, 3]
00000000: b2ef 2339 65e6 23bb 4de2 4fbc b72b 863a
00000010: 08b8 0a3d fbfd c83b 3555 e33b d496 d53c
00000020: fe84 3a39 e2aa 80bc 36be 793c bfb7 a63c
00000030: 92a9 09bb 663c e6bb f437 6f3c 9021 783c
00000040: b4e9 2f3c 41ea 453b 69f4 79bc c419 18bb
00000050: 9b26 2abc 7755 ef3c 3bf3 613d 4e20 6e3d
00000060: 7a49 033b de2c 1f3d a546 8f3c 97cf a5b3
00000070: 6af3 a6b3 45f5 a8b3 f2f9 a7b3 ac1c a9b3
00000080: 31ba aab3 6992 aab3 6048 abb3 e214 acb3
00000090: 924c 74bc 8328 3fbc 8fbe bebc af87 bdbc
000000a0: 30e2 a0bc bb95 09bd b7ed 06bd 7bec dbbc
000000b0: 279c 27bd a846 78bc da0d 49bb b8d6 4cbb
000000c0: 2ae9 3d3d ccf2 cfbc 15db c4bc a3a4 2a37
000000d0: d6c1 a13c b0c9 763b 8855 81ba 23a6 d3bc
000000e0: 4724 9ebb 6adf 193a b134 ccbc a012 fc3b
000000f0: 59fc 9bbb 651b d2bc 66b2 a93b e58c 543c
00000100: 5b1f de3c fdc9 f03b ee26 60bb ea3f 2b3d
00000110: cff6 e5bb d4e0 cfbb e3b5 823b 8c20 493c
00000120: 94d5 4cbc 8a49 ca3b 0081 f53c 2f69 f93c
00000130: 14ac f33c 0b34 2e3c a22d ad3c 10a5 1f3c
00000140: c75e 00bb fcae 253c dfba 463c a956 b73c
00000150: 533d f13c 0b66 8a3c 2696 113c 4f6c 2c3c
00000160: 6f0e 583d 8037 abbb 6bf3 e2ba 302e 943c
00000170: 33dc a6bc 4d52 493c 0ef5 183d c6af 03bc
00000180: 2d1a 8bbb 58df f33c 0219 68bc 2c0e e336
00000190: abda 0237 dde0 0637 1027 e436 30d0 0437
000001a0: 3da3 0a37 abba d536 1e5a fd36 68e5 0637
000001b0: 084e 223d 6669 33bc 9bb0 113c b057 79bc
000001c0: 229e 15bb 094a 45bc b2fe c33c 8db7 463a
000001d0: ab1d b03c 3055 fcbb 010f b53c 6987 553c
000001e0: ea35 b7bc 4d17 32bc 1472 083c faa1 0abd
000001f0: b6c5 cf3c de75 0bbb 3530 a1bb f676 be3a
00000200: 8624 a63c ecde 953b 6b34 173b fc2c b63c
00000210: f1b6 263c a4d0 43bc 5448 04bb 7d4a 0000
00000220: 6ea3 0000 4d14 0000 fc0f 0000 a073 0000
00000230: ff69 0000 c44a 0000 fb89 0000 f57b 0000
00000240: 075c 4fbd 6921 6fbc b4cd 21bd 4796 b6bc
00000250: 3778 07bc 999d dfbb 71bb 05bd 71c7 19bd
00000260: 578b 88bc 2141 993c 3f06 883c 7605 b63c
00000270: e8fc b83c ccc2 8d3c e859 a93c faae e13c
00000280: b3bc a43c 95dc a53c f6ad 8831 9f97 a831
00000290: 300a a031 7d2c 9831 2149 b731 8865 b131
000002a0: 5767 8431 59a2 9f31 240e 9b31 8662 703c
000002b0: d952 473c b784 de3b 4c88 343c bbfe 103c
000002c0: f45e 723b 5720 c23b ca76 cd3b 15d9 733b
000002d0: 3c95 f9bb c958 3a3c 1051 9e3c 36bd ce3c
000002e0: 1780 013d 69a5 0e3d eb67 6fbc 5a01 b1ba
000002f0: 5ac5 de3b 032a 14bd 09b6 d63c 3632 babb
00000300: e8ef 3fbb 55bd 7e3d ed30 a73c c9c5 29bd
00000310: 004e e23c 95ba 54bc e3cd 2cbc 3db2 973c
00000320: e12f b63c bc52 7d3c 8fdb 743c ae22 81bb
00000330: 5076 8ebb 4290 8f3c 2de3 cc3b ea18 3cbc
00000340: c507 bfbb ddb6 e0bb 82d7 1dbc d569 6ebb
00000350: b86f 7fbb ab9d 51bc 954c c4bb eaf7 cfbb
00000360: c7f3 ea3b 1160 9eb9 d80e 9bbb 0958 173c
00000370: 1993 67bb 31c5 4cbc 08d8 963b 38a3 f3bb
00000380: 9d7d 9cbc b28b e63b a706 053c 0067 8f3c
00000390: fdc0 403c b535 323d 3264 993c 9ab0 09bd
000003a0: aa3d d13b be3d 0fbd 9dec df3c 56ba b93d
000003b0: 2eee 6e3b 2b9c 9b3d c62e ec3d f7d9 843d
000003c0: f0d9 ce3b ab78 9a3d 0826 c9bb ce1e 2623
000003d0: 6319 8423 66c0 9123 b452 8423 f875 d323
000003e0: 56b4 ec23 e49e 8723 f6cd da23 2f34 fb23
000003f0: 3846 82bc 1b30 2a3c 64ce 89bc 3cad e5bc
0.00015634185 -0.0025009152 -0.012688232 0.0010236417 0.033866912 0.0061337925 0.0069376477 0.026072897
0.00017787886 -0.015706483 0.015243104 0.020351289 -0.0021005613 -0.007026243 0.014600743 0.015144721
0.0107368715 0.003019944 -0.015256026 -0.0023208717 -0.010385181 0.029215558 0.055163603 0.058136277
0.002003281 0.038861148 0.01748974 -7.7211716e-08 -7.774254e-08 -7.867724e-08 -7.822008e-08 -7.874891e-08
-7.95011e-08 -7.942874e-08 -7.975973e-08 -8.013173e-08 -0.014910834 -0.011667374 -0.023284225 -0.023135988
-0.019639105 -0.03359006 -0.032941546 -0.026846161 -0.040920403 -0.0151535645 -0.0030678422 -0.0031255912
0.04636494 -0.02538433 -0.024030248 1.0171122e-05 0.019745748 0.0037656836 -0.0009867409 -0.025836056
-0.004826102 0.0005869778 -0.024927469 0.00769265 -0.004760307 -0.025647828 0.0051787375 0.012973045
0.02711456 0.0073482976 -0.0034202891 0.041809 -0.0070179473 -0.0063439403 0.0039889677 0.012275826
-0.012502093 0.0061733173 0.029968739 0.030445663 0.02974514 0.010632525 0.021139923 0.009743944
-0.0019587742 0.01011252 0.0121295145 0.02238019 0.029448187 0.016894361 0.008885896 0.01052387
0.05274814 -0.005225122 -0.0017314976 0.01808843 -0.020368671 0.012287688 0.037343077 -0.008037513
-0.0042450638 0.029769585 -0.014166119 6.766777e-06 7.799516e-06 8.0393775e-06 6.799477e-06 7.9162855e-06
8.263448e-06 6.3696257e-06 7.5504786e-06 8.040435e-06 0.039625198 -0.010950422 0.008892204 -0.01521866
-0.002282985 -0.012041577 0.02392516 0.0007580452 0.021498522 -0.007700585 0.022101881 0.013032773
-0.022364575 -0.010869813 0.00832798 -0.03384588 0.02536283 -0.002127997 -0.004919077 0.0014531303
0.020281088 0.0045736935 0.0023072015 0.022238247 0.010175453 -0.011951599 -0.0020184712 2.6721e-41
5.8628e-41 7.283e-42 5.734e-42 4.1478e-41 3.8024e-41 2.6821e-41 4.9498e-41 4.4467e-41
-0.050624873 -0.014595368 -0.039502814 -0.022288455 -0.008268408 -0.006824207 -0.03264946 -0.037543718
-0.016668005 0.018707814 0.01660454 0.0222194 0.022581533 0.0173048 0.020672753 0.027549256
0.02010951 0.020246783 3.977898e-09 4.906681e-09 4.657771e-09 4.42884e-09 5.3343148e-09 5.1629208e-09
3.853454e-09 4.645966e-09 4.5127013e-09 0.014671927 0.0121657485 0.006790723 0.011018824 0.008849795
0.0036982866 0.0059242654 0.0062702643 0.0037208248 -0.007616667 0.011373707 0.019325763 0.025236707
0.031616297 0.034825716 -0.014612178 -0.0013504431 0.0067984285 -0.036172878 0.026209848 -0.005682255
-0.0029287282 0.06219228 0.020409072 -0.04144839 0.027625084 -0.012983938 -0.010547134 0.018517608
0.022239627 0.01546162 0.014944925 -0.0039409017 -0.0043476 0.017524842 0.0062526674 -0.011480549
-0.0058297836 -0.0068577365 -0.009633901 -0.0036378999 -0.0038976502 -0.012793939 -0.0059905746 -0.0063466923
0.007170174 -0.00030207683 -0.004731994 0.009237298 -0.003533548 -0.012498186 0.0046033897 -0.0074352287
-0.019102866 0.007035696 0.008119262 0.017505169 0.011764762 0.04350825 0.018724535 -0.033615686
0.0063855248 -0.03497099 0.027334506 0.09068744 0.0036457884 0.07598146 0.11532359 0.06486886
0.0063126013 0.07542547 -0.006138567 9.005401e-18 1.432222e-17 1.5802415e-17 1.4346495e-17 2.2926628e-17
2.5663547e-17 1.4704022e-17 2.3722835e-17 2.7235575e-17 -0.015902624 0.010387446 -0.016822048 -0.028036706

e_conv2_a.bias f4 [3]
00000000: ce11 9fbb 0e62 643d be23 643d
-0.0048544174 0.055757575 0.05569815

e_conv2_b.weight f4 [3, 32, 3, 3]
00000000: 1ebe 51ba 7ecb 9b3a 1a2c a8ba df77 743a
00000010: 6fd4 413b 7525 113a e2b1 58ba 6c8e aa3a
00000020: 2f53 92ba 5db2 37ba 0455 b738 03b7 2fba
00000030: 6318 f9b8 1174 383a 1f4f 8cb8 d721 69ba
00000040: 2276 bfb6 9b3e 5bba a3cc 1dbb f652 56ba
00000050: 72ab 77ba 2d65 913a fc8d 2b3b ed16 1e3b
00000060: 119d f3b9 697f 833a db7d 363a c19d 0080
00000070: 294c 0080 b967 0080 9e59 0080 00ab 0080
00000080: bb3c 0080 487a 0080 496f 0080 6c69 0080
00000090: 3b95 78ba c24c e3b9 7dc7 82ba 9c8d 0fba
000000a0: ed0c 3fb9 a0ef 63ba 1895 8fba 9ef8 5fba
000000b0: 069b cdba 964c 58ba 13ff 9338 08b6 c8ba
000000c0: b8c6 613a 033c d33a c154 aeb7 4d96 08ba
000000d0: e000 9f39 612f b0ba e8c9 7c39 2789 00bb
000000e0: 494a fa38 f97d a83a 3f5c 77ba d822 8d3a
000000f0: ecea 6c3a ec1f adba 8c43 373a 8087 7aba
00000100: cb37 4139 c0c6 a9ba c5e4 1e3a e897 dd3a
00000110: e701 9839 cddc 43ba d872 013a 850e 81ba
00000120: 75fa a539 4a0c 203b c55b 6a3a 575c d93a
00000130: df03 703b 2637 103b 39ea ab38 287b 0d3b
00000140: cd20 1e3a cd14 b0ba 9e44 19b8 82ea 6cba
00000150: 01dd 95b9 deb9 823a ced6 bd38 5e8a b1ba
00000160: e126 9a38 5029 51ba b6b5 bb39 2ef1 ca3a
00000170: c602 c7b9 8c03 913a b9b6 163b fd84 3f39
00000180: ab07 423a df4b e33a 8329 e4b9 fc65 6f04
00000190: 4c64 1704 b6d7 3b04 0631 c903 b743 7003
000001a0: 4350 a503 a13a 1b04 6117 a103 925e dc03
000001b0: 481f e039 1bb4 3dba 59af 3ab8 4ebc 4e39
000001c0: 4588 8aba f069 aeb9 b13d 7f39 fc6e 56ba
000001d0: 8306 4ab9 ab58 b3b9 e6b1 333a dc0a 3839
000001e0: caf9 c637 8baf 7d3a db50 033a 6c72 1cba
000001f0: 929c fa39 932c 90b8 b7d6 5e3a 6aa6 ed39
00000200: a26d c23a d64c 3937 aedd 04ba 8bf8 233a
00000210: b453 303a 4dba a839 e7cb bf3a 9ec4 0080
00000220: 05b7 0080 2b30 0080 1b21 0000 a40d 0000
00000230: 7eca 0080 e8c9 0080 c8c7 0080 4402 0000
00000240: 1e3f 8dba 1b2c 86ba 7d90 85ba f659 53ba
00000250: 8b9f 44ba d235 33ba 4613 b3ba 925e aaba
00000260: 537f 9dba 4315 f839 3c7d 503a 66b4 ff39
00000270: 3b38 4f3a 1321 8a3a aa88 2b3a 9570 263a
00000280: cd61 513a f3cb ae39 990f 0000 8b9c 0080
00000290: 6fc6 0080 dc80 0080 1a2c 0080 df16 0000
000002a0: 34c8 0080 5f09 0080 6388 0080 9153 e438
000002b0: a222 1639 f392 70b8 4713 2b39 1456 1c39
000002c0: 84bd c5b8 53ef 21b8 c6c4 bfb8 30c1 a9b9
000002d0: 9e4c b1b9 baf8 ae39 3967 b639 23a5 583a
000002e0: 1052 ad3a 5f0d a83a 1edb deba 8675 a7ba
000002f0: d179 c3ba 7244 c4ba 1654 2d3a 36c4 9aba
00000300: cf66 b339 4227 1c3b 4b8b 0c3a aca5 8dba
00000310: 1b5c 643a 8fbf 85ba d549 d5ba 4a76 e73a
00000320: 270a 18ba 6d1d 3ab8 60fc 553b d9b5 803a
00000330: 4a9b dfba fd9c d93a 94b2 3eba 58ee b5b9
00000340: 8a37 4db8 587b e3b8 8251 5d3a b657 933a
00000350: d6ea 8e3a 1f1b 8a38 b3cf bf39 5b2a 9f39
00000360: 4a88 a7b9 4ff4 7cb8 758e 21ba a323 8fb8
00000370: 3f49 e9b6 efaf 4eba 51c6 15ba ddde 29ba
00000380: d4ac c8ba e866 5fba f3f4 013b b816 ed39
00000390: 49b1 f43a aa33 963b 568e 473b a936 bbba
000003a0: 0842 a73a f4fe a8b9 a5c6 2eb9 c26f 003b
000003b0: efdc 80ba 5c8b 133b e90d 943b d9d8 af3a
000003c0: 2669 0fba 71e7 c93a f018 b3ba 8108 0080
000003d0: 2522 0080 a86b 0000 a95f 0080 d3aa 0080
000003e0: 814a 0000 f4cb 0000 c842 0080 ec30 0080
000003f0: 4a4b 10bb 204d 0a3a e84a 0bbb 2c2b 86ba
-0.0008001047 0.0011886207 -0.0012830526 0.00093257235 0.0029576083 0.00055368926 -0.00082662527 0.0013012416
-0.0011163707 -0.0007007474 8.7419554e-05 -0.0006702991 -0.000118777876 0.0007036338 -6.690458e-05 -0.0008893287
-5.705996e-06 -0.0008363516 -0.0024078272 -0.00081758143 -0.00094478496 0.0011092775 0.0026177159 0.0024122552
-0.00046465595 0.0010032478 0.0006961503 -5.6591e-41 -2.7321e-41 -3.7209e-41 -3.2149e-41 -6.1343e-41
-2.1786e-41 -4.3866e-41 -3.9922e-41 -3.7818e-41 -0.00094826863 -0.00043354003 -0.0009977665 -0.00054761185
-0.00018219995 -0.00086950697 -0.0010954468 -0.0008543822 -0.0015686459 -0.0008251158 7.0570175e-05 -0.0015313039
0.000861268 0.0016115907 -2.0781883e-05 -0.0005210385 0.00030327495 -0.0013441854 0.00024107809 -0.0019613
0.00011934766 0.0012854926 -0.0009436048 0.001076783 0.00090376916 -0.0013208366 0.0006990961 -0.0009556934
0.00018426699 -0.0012952909 0.0006061311 0.0016906234 0.00028993117 -0.00074715615 0.00049380725 -0.0009846246
0.00031657857 0.0024421387 0.00089400663 0.0016583306 0.00366234 0.0022005527 8.197543e-05 0.00215883
0.00060321094 -0.0013433933 -3.6541947e-05 -0.000903763 -0.00028584155 0.0009973606 9.052233e-05 -0.0013545265
7.350534e-05 -0.00079788733 0.00035802805 0.0015483254 -0.00037958304 0.0011063679 0.0022997095 0.00018264721
0.00074016553 0.0017341337 -0.00043518477 2.8141144e-36 1.7796019e-36 2.2080794e-36 1.18249735e-36 7.0607394e-37
9.716256e-37 1.8247084e-36 9.468097e-37 1.295215e-36 0.00042747916 -0.00072366156 -4.450916e-05 0.0001971584
-0.0010569176 -0.00033266796 0.00024341677 -0.000817999 -0.00019266647 -0.00034207603 0.0006854817 0.00017551653
2.3719756e-05 0.0009677342 0.0005009302 -0.0005967978 0.0004780037 -6.874758e-05 0.0008500623 0.0004532815
0.0014833699 1.1044749e-05 -0.0005068433 0.00062549923 0.000672634 0.00032182262 0.0014632911 -7.0533e-41
-6.5655e-41 -1.728e-41 1.1876e-41 4.893e-42 -7.264e-41 -7.243e-41 -7.1668e-41 8.13e-43
-0.0010776257 -0.0010236533 -0.0010190156 -0.00080624165 -0.00075005804 -0.0006836328 -0.001366236 -0.0012998155
-0.0012016095 0.00047318087 0.00079532317 0.00048771797 0.00079048023 0.0010538421 0.0006543497 0.00063491735
0.0007987291 0.0003333982 5.595e-42 -5.6157e-41 -7.1185e-41 -4.6226e-41 -1.582e-41 8.205e-42
-7.182e-41 -3.362e-42 -4.8926e-41 0.00010887453 0.00014318016 -5.7357316e-05 0.00016315012 0.00014909386
-9.428992e-05 -3.860828e-05 -9.1442416e-05 -0.00032378128 -0.00033817155 0.00033373182 0.00034790652 0.00082643534
0.0013223309 0.0012821368 -0.0017002558 -0.0012776114 -0.0014913623 -0.0014974012 0.0006611956 -0.0011807743
0.0003421814 0.002382711 0.00053613324 -0.001080682 0.00087112345 -0.0010204184 -0.0016272614 0.0017659154
-0.00057998527 -4.437326e-05 0.0032651648 0.000981982 -0.001705983 0.0016602572 -0.0007274535 -0.0003470059
-4.8927533e-05 -0.00010847178 0.00084426266 0.001124135 0.0010903727 6.5854045e-05 0.00036585107 0.000303584
-0.00031954265 -6.0309012e-05 -0.00061628903 -6.825409e-05 -6.952468e-06 -0.00078844925 -0.00057134504 -0.00064800476
-0.0015310296 -0.0008522109 0.001982984 0.0004522109 0.0018668558 0.0045837956 0.003044983 -0.0014283258
0.0012760768 -0.00032233412 -0.00016667934 0.0019597863 -0.0009831468 0.0022513485 0.00451826 0.0013416066
-0.00054706854 0.0015404058 -0.0013664048 -3.05e-42 -1.2249e-41 3.862e-41 -3.4316e-41 -6.128e-41
2.6727e-41 7.3165e-41 -2.3957e-41 -1.755e-41 -0.0022017532 0.0005275775 -0.0021254364 -0.0010236255

e_conv2_b.bias f4 [3]
00000000: 6234 d53c 5182 6e3c cadd 63bc
0.026025955 0.014557437 -0.013907859

e_conv3.weight f4 [32, 32, 3, 3]
00000000: 6229 583c 1a41 8fbb af03 243d 478e dabb
00000010: 233f 6d3c 28ca 3e3d 1636 93bc 7f9e abbc
00000020: 98e7 91bc f9bd c93b 3cd4 85bb 0b68 6abb
00000030: 8f56 d7bc 0205 fc3b a619 90bc 1014 fabb
00000040: a5b0 c8bc 664b b03c 0521 563d 03c1 633d
00000050: 7b11 333d 2540 dd3c 41e9 533c b76c 923c
00000060: 05e1 113c e51f 5ebb 8791 9bbc f47b 32b4
00000070: ff89 22b4 c01b 1fb4 0506 2eb4 8228 1bb4
00000080: 7f6a 16b4 4cb3 37b4 b243 25b4 f161 1fb4
00000090: fa65 cb3c cf7e 4d3c 2e16 3b3c 48fd 763c
000000a0: 3ef6 653a 1618 efb9 e048 7e3c 7b20 093c
000000b0: bfb4 4c3b d070 01bd 861a 7b3c df56 8c3c
000000c0: b99d c2bc 8c62 f23c 1e25 493b a7a2 84bb
000000d0: 2932 2d3c d2fc eebc 6f91 90bc ce63 e6bb
000000e0: 92dd dc3a 59f0 16bc 7558 de3b 17d5 e63c
000000f0: 8439 9abc 1826 15bc a0c3 8bbb cad9 ceba
00000100: ddea 963b 0800 c03c 0efa 8c3c 1f45 0a3c
00000110: 69e2 763c bc00 273c a044 34bd e351 8e3c
00000120: 3743 0dbd 0693 f93b be7c bb3a 0821 0e3c
00000130: 49d9 983b 86fa eb3b 85d0 31bd f3ff e93b
00000140: 0433 fabb c384 e53a 64a5 603b a22b a7bb
00000150: 8c01 083c 4a33 983b 4e8a 603c 93b9 dd3a
00000160: d770 5c3c 0c02 4a3c f992 14bc b251 c8bc
00000170: 1f09 0abd 9345 edbc 18c6 c7bc 2ecb e0bc
00000180: b763 7cbd 0714 ab3b 61f9 bbbc 1ae3 8136
00000190: c4d4 9a36 4ec4 9f36 866e 8436 41f5 9f36
000001a0: 4ea3 a536 5aff 6636 fcaa 8e36 9482 9536
000001b0: 256e 723b 45e2 223c a24a 603c 80b1 73bc
000001c0: 60b6 46ba 1aa8 093d 18ef 5dbc 72bb 163c
000001d0: da66 c03b e00b c3bb 667b 093d eeae d2bb
000001e0: ef3c ba39 1e02 b13b d95c 2c3c d3df 70bc
000001f0: e90c 223b 15aa 7f3c 916e ed3c 877f ef3c
00000200: 1d50 0d3d f05e 923c a5d5 d33c 3ed2 f63c
00000210: 446f 0f3c 9c7b 323c a367 2a3c 627e 0080
00000220: c566 0080 6e2f 0000 215a 0080 e17e 0000
00000230: 945f 0080 4fb9 0080 98af 0080 4dc2 0080
00000240: edb1 f23c 4601 343d 8033 473d 0456 3f3d
00000250: 1239 e73c fba5 ed3c cf57 0a3b 6ba1 0f3d
00000260: 9858 e93c 69cf 02bc d7c6 81bb 4eb6 9cbb
00000270: e3bb aabb d4c2 c9ba 090c 1dbb 5a96 b3bb
00000280: 5331 08bb 28b7 60bb 9f97 9834 8b05 a834
00000290: e491 a834 5474 a434 3a46 b534 df00 b634
000002a0: 9be0 a134 ab0e b234 1787 b234 9b83 bbbb
000002b0: 8959 5cbc 0b32 83bc f894 2fbc 3d49 90bc
000002c0: bbaa 9fbc f58b 39bc a39a 8cbc 10ea 95bc
000002d0: 6949 8d3c d680 d03c 334c 833c b3bf 243d
000002e0: 3c81 d23c cfe5 813c 2717 203d 8f7b 2d3d
000002f0: 5800 403d b9e7 3a3d a32b f73c 819b d73c
00000300: 718a 0f3d 3fcb fb3c 4210 283d 7caa c23c
00000310: e6b3 c43c 7882 403c cd3f 93bb 0750 d139
00000320: 42c1 9a3c 9672 483b 9197 d53c 1757 7b3c
00000330: e85b 673a d748 6ebb 7cc4 79bc 1f45 32bc
00000340: d533 f0bc 03e8 3d3b 18ab 13bc ca8a e53b
00000350: b7d0 c43b 4a39 6bbc 46df 06bc 5530 22ba
00000360: 342d 3b3c a530 a13b 42b4 503a 45c7 b93b
00000370: a118 11bb c1f8 c7bb 91a2 183c 15cb f73a
00000380: 2eeb 3dbb 487e 343c 370a 84bc a68f 68ba
00000390: d3c1 ea3c 63cc b23c c5b5 93bb c49b af3b
000003a0: c1f8 863a 99e4 2d3c cd8f 0a3c 1f58 4a3c
000003b0: 093c c63c 48a3 363c 8b0d 9a3c 0b1a 103d
000003c0: fe72 1e3c 17c5 a23c e53b c73c 134a d0aa
000003d0: 9abf f0aa d371 feaa da72 d8aa 58ee f7aa
000003e0: 0d7f 02ab 0e44 d0aa 2236 eeaa 2237 f9aa
000003f0: c598 2bbc 7c98 b63c 26a7 45bc cb3d 27bc
0.01319346 -0.0043717744 0.040042575 -0.006669793 0.014480385 0.04657951 -0.017970126 -0.0209496
-0.017810628 0.0061566797 -0.004084138 -0.003576758 -0.026286392 0.0076910267 -0.017590355 -0.007631786
-0.024498293 0.021520328 0.052277584 0.055603992 0.043717843 0.027008126 0.01293403 0.017874105
0.0089037465 -0.0033893522 -0.018990291 -1.6622636e-07 -1.5137628e-07 -1.4818124e-07 -1.6207203e-07 -1.4450237e-07
-1.4008582e-07 -1.7108431e-07 -1.539145e-07 -1.484366e-07 0.0248289 0.012542441 0.011418862 0.015075035
0.00087723497 -0.00045603578 0.015520304 0.00836956 0.0031235663 -0.031601727 0.015326148 0.017131267
-0.023756849 0.029588006 0.003069229 -0.00404771 0.010571041 -0.029173288 -0.017647473 -0.0070309406
0.0016850701 -0.009212577 0.0067854472 0.028177781 -0.018826254 -0.009103321 -0.0042652637 -0.0015781459
0.0046056346 0.023437515 0.01720908 0.008439331 0.015068629 0.010193046 -0.04401076 0.017373031
-0.03448793 0.0076164035 0.0014304144 0.008674867 0.0046645743 0.0072014956 -0.04341175 0.007141107
-0.007635476 0.001751088 0.0034278268 -0.005101637 0.00830115 0.004644786 0.013704849 0.0016916267
0.0134546375 0.01232959 -0.009068244 -0.024453018 -0.033700105 -0.02896384 -0.02438645 -0.027440634
-0.061618533 0.0052208933 -0.022946062 3.8709377e-06 4.614327e-06 4.761422e-06 3.946773e-06 4.7671206e-06
4.9363944e-06 3.4421305e-06 4.251835e-06 4.4557473e-06 0.003699192 0.009941642 0.013689669 -0.014873862
-0.00075802766 0.03360758 -0.013545774 0.009199964 0.005871636 -0.0059523433 0.033564948 -0.0064295447
0.00035522084 0.0054018637 0.0105201835 -0.014701801 0.0024726933 0.015604516 0.028983386 0.029235614
0.03450023 0.017867535 0.02585871 0.030129548 0.008754555 0.010893729 0.0104006855 -4.5338e-41
-3.6867e-41 1.7015e-41 -3.2332e-41 4.5516e-41 -3.4287e-41 -6.6476e-41 -6.2991e-41 -6.9702e-41
0.029625857 0.043946527 0.0486331 0.04671289 0.028225455 0.02900981 0.0021109467 0.03506605
0.028484628 -0.007984021 -0.003960471 -0.0047824746 -0.005210386 -0.0015393146 -0.0023963472 -0.00548057
-0.0020781353 -0.0034288857 2.8422525e-07 3.1296472e-07 3.1398588e-07 3.063202e-07 3.3764974e-07 3.3900776e-07
3.015201e-07 3.3165756e-07 3.3253374e-07 -0.0057224757 -0.013449081 -0.016015073 -0.010716669 -0.017613048
-0.01949059 -0.011324872 -0.01716358 -0.018300086 0.017246919 0.025452059 0.016027546 0.04022188
0.02569639 0.015856652 0.03908458 0.042354163 0.046875328 0.045631144 0.030172175 0.026319267
0.035044137 0.030736564 0.04103113 0.023762934 0.024011564 0.011749856 -0.0044936896 0.0003992321
0.01889098 0.0030585877 0.026073249 0.015340588 0.0008825646 -0.0036359334 -0.015244599 -0.010880738
-0.02932159 0.00289774 -0.00901296 0.0070050703 0.006006326 -0.0143569205 -0.0082319435 -0.00061870116
0.0114243515 0.004919129 0.0007961431 0.0056695067 -0.0022139924 -0.006102652 0.009316103 0.0018905128
-0.002897929 0.011016436 -0.016118152 -0.0008871503 0.028656876 0.021825975 -0.0045077526 0.005359145
0.0010297523 0.010613584 0.008457136 0.012350111 0.024198549 0.011147328 0.018805286 0.035181087
0.009670971 0.01986937 0.024320552 -3.6999622e-13 -4.2765514e-13 -4.5198445e-13 -3.8449002e-13 -4.4041398e-13
-4.6361596e-13 -3.6995445e-13 -4.2314855e-13 -4.4269541e-13 -0.010473435 0.022289507 -0.012063777 -0.010207604

e_conv3.bias f4 [32]
00000000: 7854 433d 25cb 2f3d 8f23 5b3d 7bc1 2b3d
00000010: c966 8fb1 0cbf 483d f559 693d b891 a13a
00000020: 0663 193d 6966 403d 0949 2739 69db 953c
00000030: e47f 533d 206d feb6 aa69 133b 4b5d b43b
00000040: 6f49 9880 c06c 673c b1e5 703d 7557 94bb
00000050: 5ae5 d984 55fe 9e3d 5615 11bd 416a 6fbc
00000060: 826f 979d c645 a03d f1d4 ff3b 7d5e 0780
00000070: 2975 94ba 01d1 d7bb ee95 023d d9da fd3c
0.047687978 0.042918343 0.05350071 0.041932564 -4.173533e-09 0.04901032 0.056970555 0.0012326753
0.03744795 0.046972666 0.00015953569 0.0182931 0.051635638 -7.5824937e-06 0.00224934 0.0055042855
-1.3985338e-38 0.014125049 0.0588128 -0.0045270273 -5.122708e-36 0.07763354 -0.03542074 -0.014612735
-4.0084664e-21 0.07825808 0.007807367 -6.76744e-40 -0.001132642 -0.0065861945 0.031881265 0.030988144
